checkpoint/best_model.pth (torch, 447543 bytes, 32 tensors)

joint_pos_embed f4 [1, 21, 4]
0	0x3cc41d20	0.02393967
1	0x3c9a7491	0.018854411
2	0xbd1b8b11	-0.03797442
3	0xbd087f34	-0.033324435
4	0xbbb1efd1	-0.0054301997
5	0xbc346b69	-0.011011937
6	0x3b8e9d23	0.0043522283
7	0xbd45a1ae	-0.048249893
8	0x3cdc990b	0.026928445
9	0x3c61b751	0.013776616
10	0xbc666b3c	-0.014063653
11	0xbd15ecc8	-0.036602765
12	0xbb34a7b3	-0.0027565777
13	0x3d14598c	0.03621821
14	0x3c114334	0.00886612
15	0x3cfaec59	0.030630277
16	0x3a506f3b	0.0007951145
17	0x3c2fee58	0.010737978
18	0xbc33bc58	-0.010970198
19	0xbd066d91	-0.032819334
20	0x3c692a44	0.014231268
21	0x3bb054a1	0.0053811823
22	0xbbb2cc95	-0.005456517
23	0xbd24429d	-0.04010259
24	0x3c74c2ce	0.014939023
25	0x3c00df28	0.007865705
26	0xbcb23b84	-0.021756895
27	0xbd029055	-0.031875927
28	0x3cd993dc	0.026559763
29	0x3b73bc44	0.0037191072
30	0x3a6e3ed9	0.00090883445
31	0xbca2ef57	-0.019889517
32	0x3cd3bee5	0.025847862
33	0x3cc6965b	0.024241617
34	0xbbef521b	-0.007303489
35	0xbc15c579	-0.009141319
36	0x3cca9231	0.024727913
37	0x3c7f7611	0.015592114
38	0xbc90664f	-0.01762691
39	0x3d133929	0.035943184
40	0x3b001e9a	0.001954949
41	0xbc077dae	-0.0082697105
42	0xbc4f7772	-0.012662755
43	0x3cf04223	0.029328411
44	0x3c21b653	0.00987013
45	0x3c252b2b	0.010081093
46	0xbcc9a0d6	-0.024612825
47	0xbcbce34b	-0.0230576
48	0x3c1968fa	0.009363407
49	0x3cf78d60	0.03021878
50	0x3c8d52ba	0.017251361
51	0x3d04e784	0.032447353
52	0x3cebde4b	0.028792521
53	0x3a94e98d	0.0011361107
54	0xbb9990b2	-0.0046864385
55	0xbcc57543	-0.024103766
56	0x3ced73fd	0.028985972
57	0x3cb8db12	0.022565398
58	0xbd135aa5	-0.035975117
59	0x3d18e0c1	0.037323717
60	0x3d0ad014	0.033889845
61	0x3b3c69a1	0.0028749483
62	0xbcf82796	-0.030292314
63	0x3cec03af	0.02881035
64	0x3c01cbc0	0.007922113
65	0xbc6e0ad7	-0.014528952
66	0xbc8935ad	-0.016749227
67	0x3ce26521	0.027636113
68	0x3a944cc7	0.0011314385
69	0x3d1271cd	0.03575306
70	0xbc8e452f	-0.017366974
71	0xbcdfe7c6	-0.027332198
72	0x3d02ad96	0.031903826
73	0x3cf51af0	0.029920071
74	0xbceafabd	-0.028684014
75	0xbce8a120	-0.028397143
76	0x3c96a9a3	0.018391436
77	0xbbc42c06	-0.0059866933
78	0xbbbb9c25	-0.005725401
79	0xbceed6c7	-0.029155148
80	0x3c6f803a	0.014617974
81	0x3c519551	0.012791947
82	0xbc0b48ae	-0.008501215
83	0x3cf152a1	0.029458346

pos_embed f4 [1, 30, 64]
0	0x00000000	0.0
1	0x3f800000	1.0
2	0x00000000	0.0
3	0x3f800000	1.0
4	0x00000000	0.0
5	0x3f800000	1.0
6	0x00000000	0.0
7	0x3f800000	1.0
8	0x00000000	0.0
9	0x3f800000	1.0
10	0x00000000	0.0
11	0x3f800000	1.0
12	0x00000000	0.0
13	0x3f800000	1.0
14	0x00000000	0.0
15	0x3f800000	1.0
16	0x00000000	0.0
17	0x3f800000	1.0
18	0x00000000	0.0
19	0x3f800000	1.0
20	0x00000000	0.0
21	0x3f800000	1.0
22	0x00000000	0.0
23	0x3f800000	1.0
24	0x00000000	0.0
25	0x3f800000	1.0
26	0x00000000	0.0
27	0x3f800000	1.0
28	0x00000000	0.0
29	0x3f800000	1.0
30	0x00000000	0.0
31	0x3f800000	1.0
32	0x00000000	0.0
33	0x3f800000	1.0
34	0x00000000	0.0
35	0x3f800000	1.0
36	0x00000000	0.0
37	0x3f800000	1.0
38	0x00000000	0.0
39	0x3f800000	1.0
40	0x00000000	0.0
41	0x3f800000	1.0
42	0x00000000	0.0
43	0x3f800000	1.0
44	0x00000000	0.0
45	0x3f800000	1.0
46	0x00000000	0.0
47	0x3f800000	1.0
48	0x00000000	0.0
49	0x3f800000	1.0
50	0x00000000	0.0
51	0x3f800000	1.0
52	0x00000000	0.0
53	0x3f800000	1.0
54	0x00000000	0.0
55	0x3f800000	1.0
56	0x00000000	0.0
57	0x3f800000	1.0
58	0x00000000	0.0
59	0x3f800000	1.0
60	0x00000000	0.0
61	0x3f800000	1.0
62	0x00000000	0.0
63	0x3f800000	1.0
64	0x3f576aa4	0.84147096
65	0x3f0a5141	0.54030234
66	0x3f2e7ace	0.68156135
67	0x3f3b54b0	0.731761
68	0x3f087dba	0.53316844
69	0x3f58940d	0.8460091
70	0x3ed190f1	0.40930894
71	0x3f6992c6	0.91239583
72	0x3e9f393e	0.3109836
73	0x3f734e6b	0.9504153
74	0x3e708f25	0.23492105
75	0x3f78d5f1	0.9720145
76	0x3e35233a	0.17689219
77	0x3f7bf683	0.9842302
78	0x3e0825f3	0.13295726
79	0x3f7dba28	0.99112177
80	0x3dcc7576	0.099833414
81	0x3f7eb898	0.9950042
82	0x3d996f36	0.07491915
83	0x3f7f47d1	0.9971896
84	0x3d6636ae	0.05620449
85	0x3f7f9868	0.9984193
86	0x3d2cacfa	0.04215715
87	0x3f7fc5bd	0.999111
88	0x3d01815b	0.031617504
89	0x3f7fdf3c	0.99950004
90	0x3cc23ea5	0.023711512
91	0x3f7fed93	0.99971884
92	0x3c91ab42	0.017781857
93	0x3f7ff5a3	0.99984187
94	0x3c5a7a49	0.013334819
95	0x3f7ffa2c	0.99991107
96	0x3c23d657	0.009999833
97	0x3f7ffcb9	0.99995
98	0x3bf5b916	0.0074988706
99	0x3f7ffe28	0.99997187
100	0x3bb8445a	0.0056233825
101	0x3f7ffef7	0.9999842
102	0x3b8a2e5a	0.0042169513
103	0x3f7fff6b	0.9999911
104	0x3b4f3e1c	0.0031622713
105	0x3f7fffac	0.999995
106	0x3b1b6903	0.0023713715
107	0x3f7fffd1	0.9999972
108	0x3ae91520	0.0017782785
109	0x3f7fffe6	0.99999845
110	0x3aaec98b	0.0013335211
111	0x3f7ffff1	0.9999991
112	0x3a83126d	0.0009999998
113	0x3f7ffff8	0.9999995
114	0x3a449489	0.000749894
115	0x3f7ffffb	0.9999997
116	0x3a136a13	0.0005623411
117	0x3f7ffffd	0.9999998
118	0x39dd1721	0.00042169637
119	0x3f7fffff	0.99999994
120	0x39a5cb61	0.00031622782
121	0x3f7fffff	0.99999994
122	0x3978a80d	0.00023713727
123	0x3f800000	1.0
124	0x393a7753	0.00017782794
125	0x3f800000	1.0
126	0x390bd46d	0.00013335208
127	0x3f800000	1.0
128	0x3f68c7b7	0.9092974
129	0xbed51133	-0.41614684
130	0x3f7f5ad9	0.99748
131	0x3d914d53	0.070948265
132	0x3f66f20a	0.9021307
133	0x3edce8b2	0.43146282
134	0x3f3f3512	0.74690354
135	0x3f2a3902	0.66493237
136	0x3f17541b	0.5911271
137	0x3f4e7bec	0.8065784
138	0x3ee9d3b5	0.45669332
139	0x3f63be69	0.8896242
140	0x3eb247f6	0.34820527
141	0x3f6ffaa6	0.93741834
142	0x3e86f082	0.26355368
143	0x3f76f2f5	0.96464473
144	0x3e4b6ff8	0.19866931
145	0x3f7ae5a5	0.9800666
146	0x3e1900d3	0.1494172
147	0x3f7d204f	0.98877424
148	0x3de5d986	0.1122313
149	0x3f7e61f3	0.9936821
150	0x3dac85ae	0.08423935
151	0x3f7f170e	0.99644554
152	0x3d8170c8	0.063203394
153	0x3f7f7cf9	0.9980007
154	0x3d4230aa	0.04740969
155	0x3f7fb64e	0.9988755
156	0x3d11a55c	0.03555809
157	0x3f7fd68e	0.9993676
158	0x3cda7550	0.026667267
159	0x3f7fe8b1	0.99964434
160	0x3ca3d43e	0.019998666
161	0x3f7ff2e5	0.9998
162	0x3c75b751	0.014997319
163	0x3f7ff8a1	0.9998875
164	0x3c38439b	0.011246587
165	0x3f7ffbdb	0.99993676
166	0x3c0a2e0a	0.008433828
167	0x3f7ffdab	0.9999644
168	0x3bcf3dd8	0.006324511
169	0x3f7ffeb1	0.99998003
170	0x3b9b68e7	0.00474273
171	0x3f7fff43	0.99998873
172	0x3b691508	0.0035565514
173	0x3f7fff96	0.9999937
174	0x3b2ec980	0.0026670396
175	0x3f7fffc4	0.9999964
176	0x3b031268	0.0019999985
177	0x3f7fffdf	0.99999803
178	0x3ac49485	0.0014997876
179	0x3f7fffed	0.99999887
180	0x3a936a12	0.0011246821
181	0x3f7ffff5	0.99999934
182	0x3a5d171f	0.0008433926
183	0x3f7ffffa	0.99999964
184	0x3a25cb60	0.0006324556
185	0x3f7ffffd	0.9999998
186	0x39f8a80c	0.0004742745
187	0x3f7ffffe	0.9999999
188	0x39ba7753	0.00035565588
189	0x3f7fffff	0.99999994
190	0x398bd46d	0.00026670416
191	0x3f800000	1.0
192	0x3e1081c3	0.14112
193	0xbf7d7026	-0.9899925
194	0x3f473cde	0.7782725
195	0xbf20bfce	-0.6279267
196	0x3f7e45d7	0.9932532
197	0xbded7fab	-0.11596616
198	0x3f742163	0.95363444
199	0x3e9a1863	0.3009673
200	0x3f5009c2	0.8126489
201	0x3f152f58	0.58275366
202	0x3f2724b7	0.652904
203	0x3f41e7a2	0.7574407
204	0x3f022f6c	0.5085361
205	0x3f5c6d29	0.86104065
206	0x3ec768a7	0.3894703
207	0x3f6bc937	0.92103904
208	0x3e974e6c	0.2955202
209	0x3f7490ef	0.9553365
210	0x3e646de2	0.22307542
211	0x3f798c92	0.9748012
212	0x3e2beed7	0.16790329
213	0x3f7c5d9e	0.9858035
214	0x3e01332c	0.12617177
215	0x3f7df443	0.9920084
216	0x3dc1ffc0	0.094726086
217	0x3f7ed94f	0.99550337
218	0x3d919306	0.071081206
219	0x3f7f5a3a	0.9974705
220	0x3d5a694e	0.053323083
221	0x3f7fa2c3	0.9985773
222	0x3d23d1c5	0.039994974
223	0x3f7fcb90	0.99919987
224	0x3cf5b91f	0.0299955
225	0x3f7fe283	0.99955004
226	0x3cb84747	0.022494925
227	0x3f7fef6b	0.999747
228	0x3c8a31c6	0.016869437
229	0x3f7ff6ad	0.9998577
230	0x3c4f4446	0.012650555
231	0x3f7ffac1	0.99991995
232	0x3c1b6e0d	0.009486687
233	0x3f7ffd0d	0.999955
234	0x3be91d13	0.0071140616
235	0x3f7ffe58	0.9999747
236	0x3baecfa8	0.005334813
237	0x3f7fff11	0.99998575
238	0x3b831713	0.0040005534
239	0x3f7fff7a	0.999992
240	0x3b449b92	0.0029999954
241	0x3f7fffb5	0.9999955
242	0x3b136f60	0.0022496805
243	0x3f7fffd6	0.9999975
244	0x3add1f17	0.0016870227
245	0x3f7fffe8	0.99999857
246	0x3aa5d156	0.0012650888
247	0x3f7ffff3	0.9999992
248	0x3a78b110	0.00094868336
249	0x3f7ffff9	0.9999996
250	0x3a3a7e09	0.00071141176
251	0x3f7ffffc	0.99999976
252	0x3a0bd97e	0.0005334838
253	0x3f7ffffe	0.9999999
254	0x39d1bea4	0.00040005625
255	0x3f7fffff	0.99999994

input_proj.weight f4 [64, 99]
0	0xbd0938c8	-0.033501416
1	0x3d45a2c2	0.04825092
2	0xbd0cde12	-0.03439147
3	0xbd26823c	-0.040651545
4	0xbba22e26	-0.004949349
5	0x3d891763	0.06693914
6	0xbb846188	-0.004039947
7	0xb88b6a39	-6.647822e-05
8	0x3d69b9c0	0.05706191
9	0x3d226c1e	0.03965389
10	0x3d97bc0a	0.074089125
11	0x3c1c2154	0.00952943
12	0xbd345b0a	-0.044032134
13	0xbd77e82e	-0.06052416
14	0xbce19c43	-0.027540332
15	0xbc3310cd	-0.010929299
16	0x3c0072ca	0.007839868
17	0xbbb4e16e	-0.0055200374
18	0x3da2d9fc	0.079517335
19	0xbd10033d	-0.03515934
20	0xbd3fdde4	-0.04684247
21	0xbbb6c527	-0.0055777016
22	0x3d593ba4	0.053035393
23	0xbbe038b6	-0.006842698
24	0xbc3167a8	-0.010827936
25	0xbd884fa3	-0.066558145
26	0x3da1d47f	0.079018585
27	0xbb90b5f9	-0.004416224
28	0xbdc10da5	-0.094264306
29	0x3d0d9e3f	0.034574743
30	0xbd2000cc	-0.03906326
31	0x3bf11d76	0.0073582483
32	0x3b874d08	0.004129056
33	0xbd38f5f9	-0.045156453
34	0xbbd7002d	-0.0065613003
35	0xbcd5e847	-0.026111735
36	0xbd9ea52b	-0.07746347
37	0xbcbf2cfb	-0.023336878
38	0xbd9a57ce	-0.07536279
39	0xbc8c23dc	-0.017106943
40	0xbdaa1da1	-0.083064325
41	0x3d861fd2	0.06549038
42	0x3d089541	0.033345465
43	0x3da6b834	0.08140603
44	0x3cc1e986	0.023670923
45	0xbcc78fff	-0.024360655
46	0x3bad03ff	0.0052800174
47	0x3d2ae5b8	0.041722983
48	0xbce82bae	-0.02834114
49	0xbccd9af8	-0.025098309
50	0x3d42935b	0.04750381
51	0x3ddb6098	0.10711783
52	0x3c1cb105	0.009563689
53	0x3d6fec9e	0.058575265
54	0x3d90c5c3	0.0706897
55	0x3d6d62b2	0.05795545
56	0xba8200b0	-0.0009918418
57	0xbd895d51	-0.06707252
58	0xb905b486	-0.00012751119
59	0xbc990251	-0.018677862
60	0xbb8d3ad4	-0.0043099914
61	0xbdd09145	-0.10183958
62	0xbda0e995	-0.07857052
63	0x3d9238e6	0.07139759
64	0x3da0c7ea	0.078506306
65	0xbdcbe8c2	-0.099565044
66	0x3cad669f	0.021167098
67	0x3bdcbea9	0.0067365956
68	0x3d2406d9	0.040045593
69	0x3d0c484f	0.034248646
70	0x3d1fa396	0.038974367
71	0x3b65e801	0.0035080912
72	0x3cf7ec4d	0.030264044
73	0xbd69b0da	-0.057053424
74	0x3d354f76	0.044265233
75	0xbdb30c40	-0.08742571
76	0xbd20ca1c	-0.039255247
77	0x3c956bc1	0.018239858
78	0x3d07e4e0	0.033177257
79	0xbc199139	-0.009373003
80	0xbbf7f344	-0.0075668413
81	0xbc883f4d	-0.016631747
82	0x3d12e7db	0.035865646
83	0x3dc0660b	0.09394463
84	0xbcad22bd	-0.021134729
85	0xbca55449	-0.020181792
86	0x3da91819	0.082565494
87	0xbd4367b5	-0.047706325
88	0x3d9152a8	0.070958436
89	0x3d88dd3e	0.066828236
90	0xbcf7d828	-0.030254439
91	0x3c007e33	0.007842588
92	0x3bc391bd	0.005968301
93	0x3d176ff6	0.03697201
94	0xbbefb70c	-0.007315522
95	0xbdb6212c	-0.08893046
96	0xbdc6ba7d	-0.097035386
97	0xbbf8325e	-0.0075743636
98	0x3dba7e89	0.09106166
99	0x3d2b33e7	0.041797545
100	0x3be00c27	0.006837386
101	0x3b3548e6	0.002766186
102	0x3d7745e9	0.060369406
103	0x3c98bf94	0.01864604
104	0x3b807512	0.003920206
105	0x3d344ef9	0.044020627
106	0x3dbc4c77	0.09194272
107	0x3cb1ece2	0.0217194
108	0x3c83d41c	0.016092353
109	0xbd77a579	-0.06046054
110	0x3dbd0e64	0.092312604
111	0xbdb95263	-0.09048917
112	0x3d10cecf	0.035353478
113	0x3c8cf6e6	0.017207574
114	0xbd0f12c1	-0.034929994
115	0x3d9f6c1b	0.07784291
116	0xbdb3037f	-0.08740901
117	0x3c2370e9	0.00997565
118	0xbc761719	-0.015020155
119	0x3cbcd0f3	0.023048854
120	0x3d5d0e12	0.053968497
121	0xbd0a857a	-0.0338187
122	0x3da82e6f	0.082119815
123	0x3dd2c892	0.10292162
124	0xbcc48ceb	-0.023992976
125	0xbd3b4b66	-0.045726202
126	0x3dbcf625	0.09226636
127	0xbd3592fb	-0.044329625
128	0xbca941fe	-0.02066135
129	0x3c85ec54	0.016348042
130	0x3c18ad69	0.009318688
131	0xbdb929a7	-0.09041148
132	0xbd8d6b2d	-0.06905208
133	0x3cdd8156	0.027039211
134	0xbd559a69	-0.05214921
135	0xbd74a8d6	-0.059731327
136	0x3ce80180	0.028321028
137	0x387c680e	6.017839e-05
138	0xbca2d31c	-0.019876055
139	0x3c5b8d44	0.01340038
140	0x3dbffaec	0.093740314
141	0xbc6e670f	-0.014550938
142	0x3d8920d7	0.06695717
143	0xbc9823e7	-0.018571807
144	0xb9995e82	-0.00029252848
145	0xbd323eba	-0.043516852
146	0xbcf70522	-0.030153815
147	0x3d94fd5e	0.072748885
148	0xbd977a0a	-0.07396324
149	0x3c683032	0.014171647
150	0x3c9b6f9a	0.018974114
151	0xbd3fbd85	-0.0468116
152	0xbd81b9b3	-0.063342474
153	0xbd838cc7	-0.064233355
154	0x3caa120b	0.020760557
155	0x3db6fb06	0.08934598
156	0xbd30920b	-0.043108027
157	0x3da1c6d9	0.07899255
158	0xbdb11f4e	-0.08648549
159	0x3cab3813	0.020900762
160	0xbd972721	-0.0738051
161	0xbd831055	-0.063995995
162	0x3d115d4d	0.03548937
163	0x3dc66117	0.09686487
164	0xbd479ed7	-0.048735466
165	0xbd6f93bb	-0.058490496
166	0x3d201518	0.039082617
167	0xbda78220	-0.08179116
168	0xbdbe9e2a	-0.09307511
169	0xbd0c1a1d	-0.03420459
170	0xbd0bc797	-0.03412589
171	0x3ce92f0b	0.028464815
172	0xbda860ce	-0.08221589
173	0xbd0a35c9	-0.0337427
174	0xbd7bad88	-0.06144479
175	0x3dbc3ba5	0.09191064
176	0xbd56459b	-0.052312475
177	0xbcc4f7a4	-0.024043866
178	0xbdbbabba	-0.091636136
179	0x3d58caf6	0.052927934
180	0x3d57b824	0.052665845
181	0xbd6e42af	-0.058169063
182	0xbdcc99be	-0.099902615
183	0xbd15a665	-0.03653564
184	0xbd166408	-0.03671649
185	0xbd91f861	-0.07127453
186	0xbd9532b9	-0.07285065
187	0xbd8e7075	-0.06955043
188	0xbce00f96	-0.027351182
189	0xbd01ad06	-0.03165915
190	0x3ccc40a2	0.024933163
191	0x3d62d232	0.05537624
192	0xbc84ccd1	-0.016210945
193	0xbd6281b2	-0.05529947
194	0x3c82667c	0.015918009
195	0xbda3ae53	-0.07992234
196	0x3cffc707	0.031222833
197	0x3d99c53c	0.075083226
198	0x3c913b9a	0.017728616
199	0xbd3300cf	-0.043701943
200	0x3cb5c775	0.022189835
201	0xbc8a1f68	-0.016860679
202	0xbd27824b	-0.04089574
203	0xbc3efe21	-0.011657269
204	0xbbb6720e	-0.0055677956
205	0x3a2b6481	0.00065381086
206	0x3deef61a	0.11668034
207	0xbd0a4f01	-0.03376675
208	0xbba0a6ba	-0.004902688
209	0xbde5dabd	-0.11223362
210	0xbd7f6ba5	-0.062358517
211	0x3d81df1a	0.06341381
212	0xbdd67e1b	-0.104732715
213	0xbd457c94	-0.04821451
214	0xbb5643c1	-0.0032694193
215	0x3d868384	0.06568053
216	0xbd2f79ed	-0.042840887
217	0xbb9ca6ee	-0.0047806418
218	0xbd4c86a8	-0.049933106
219	0xbd46a394	-0.048495844
220	0x3cb1ad30	0.021689028
221	0xbc972893	-0.018451964
222	0x3d2be1d4	0.041963413
223	0x3e015ead	0.12633772
224	0x3d337af6	0.043818437
225	0xbdb0e2bb	-0.086369954
226	0xbc5ccd39	-0.013476663
227	0xbd404811	-0.046943728
228	0x3d46cd0f	0.048535403
229	0xbda40632	-0.08008994
230	0xbd870032	-0.06591834
231	0xbb10833a	-0.0022050873
232	0x3d890cc9	0.06691892
233	0x3c942246	0.01808275
234	0x3db73f64	0.08947638
235	0x3ca8ecad	0.020620668
236	0xbcf90b50	-0.030400902
237	0x3e1a07b0	0.15041995
238	0xbd2a80b3	-0.041626643
239	0x3deb0eea	0.11477454
240	0xbd2dd40e	-0.04243856
241	0x3c2450e0	0.010029048
242	0x3d93da68	0.07219392
243	0xbd7f6f81	-0.062362198
244	0x3d34f3c5	0.04417779
245	0xbd82175b	-0.06352111
246	0xbd2fc6fd	-0.04291438
247	0x3beac7c6	0.007164928
248	0x3da5f22d	0.08102832
249	0x3dd1a4ff	0.10236549
250	0x3e01d971	0.12680604
251	0xb995b4e8	-0.0002855428
252	0xbd891d25	-0.06695012
253	0x3c552e89	0.013011583
254	0xbd217174	-0.039414838
255	0xbd890a3a	-0.06691404

input_proj.bias f4 [64]
0	0xbd9749bf	-0.07387113
1	0x3ce8582b	0.028362354
2	0x3d945de1	0.072444685
3	0xbd189111	-0.03724772
4	0x3da6bb56	0.081412
5	0xbb6f94a8	-0.0036557112
6	0x3c1cb520	0.009564668
7	0x3d1e5198	0.038652033
8	0x3c86dfeb	0.016464194
9	0xbce34181	-0.027741196
10	0x3cc9f1ba	0.024651397
11	0x3c4fa974	0.012674678
12	0x3c5a4301	0.013321639
13	0x3dd623a1	0.104560144
14	0x3da6a534	0.08136979
15	0xbdb4f0c4	-0.08834985
16	0x3db742b0	0.089482665
17	0xbd45d631	-0.048299972
18	0x3d8b7e59	0.06811208
19	0xbdb251e8	-0.087070286
20	0xbd33a19c	-0.043855295
21	0x3d262881	0.04056597
22	0x3ccd8b42	0.025090817
23	0x3d86ad7b	0.065760575
24	0x3dbf4374	0.093390375
25	0xbb90633d	-0.0044063614
26	0x3cf1a498	0.02949743
27	0xbd0a470f	-0.033759173
28	0x3d415f54	0.047210053
29	0x3d91e248	0.07123238
30	0xbdba6641	-0.09101535
31	0x3caf4cf6	0.021399003
32	0xbcd8fe29	-0.02648838
33	0xbdaed54e	-0.085367784
34	0xbd777486	-0.06041386
35	0x3dd0f4bf	0.102029316
36	0x3d60b57c	0.054860577
37	0xbd87223f	-0.06598329
38	0xbd45e8dd	-0.04831778
39	0x3cf48611	0.029849084
40	0xbd0b5a68	-0.034021765
41	0x3d0cba4f	0.034357365
42	0xbd65dad0	-0.05611688
43	0xbc467ac8	-0.012114234
44	0xbdb0adef	-0.08626925
45	0xbce8d7a7	-0.028423144
46	0x3d79f912	0.061028548
47	0x3d0eb53b	0.034840804
48	0x3d83bfb3	0.06433048
49	0x3d7033fb	0.058643322
50	0x3d8b1c71	0.06792534
51	0x3c9a794b	0.018856665
52	0xbc172b59	-0.0092266435
53	0xbd15b87c	-0.03655289
54	0xbd47ec9c	-0.048809633
55	0xbc818307	-0.015809549
56	0xbd182022	-0.03714002
57	0xbd8966c8	-0.06709057
58	0x3dc3601d	0.095398165
59	0x3db93144	0.090426
60	0xbdd631e7	-0.10458737
61	0x3c45e5a6	0.012078678
62	0xbac7f2de	-0.0015254875
63	0x3c25bbbd	0.010115561

transformer.layers.0.self_attn.in_proj_weight f4 [192, 64]
0	0x3d727993	0.059197973
1	0x3c982489	0.018572109
2	0xbdbd8e02	-0.092556015
3	0xbdc5600c	-0.0963746
4	0x3d5bcae3	0.053660285
5	0xbde3717d	-0.111056305
6	0x3de68b14	0.11256996
7	0xbc345acd	-0.011007977
8	0xbd8708e4	-0.065934926
9	0x3d933356	0.07187526
10	0x3d30a0c2	0.04312206
11	0x3dbbac63	0.091637395
12	0x3d59e8a3	0.053200375
13	0x3e0f7528	0.14009535
14	0x3d42cdfc	0.047559723
15	0x3e1ae18b	0.151251
16	0x3d89ca34	0.0672802
17	0xbad44f48	-0.0016197944
18	0xbdddeedc	-0.108365744
19	0x3d952ada	0.07283564
20	0xbdbea8ba	-0.09309526
21	0x3e1703b9	0.14747514
22	0xbc1aa021	-0.009437592
23	0xbd629678	-0.05531928
24	0x3d4dcd44	0.050244585
25	0xbdcc2c4e	-0.09969388
26	0xbdebd308	-0.115148604
27	0xbddb0b3a	-0.10695501
28	0xbd4e28b9	-0.050331805
29	0xbe1c08e1	-0.15237762
30	0xbe086794	-0.13320762
31	0x3e07a175	0.13245185
32	0x3e12d6af	0.14339708
33	0xbde8f4be	-0.11374806
34	0x3dfc247e	0.12311648
35	0x3c0d6997	0.008631132
36	0x3dbd90cc	0.092561334
37	0x3dce6527	0.10077887
38	0xbd9089ab	-0.07057508
39	0xbd7c1058	-0.061539024
40	0x3e12e209	0.14344038
41	0xbd81fb82	-0.063467994
42	0x3c699193	0.014255899
43	0xbde3126e	-0.110874996
44	0x3ddf717b	0.109103166
45	0x3d1b30a5	0.037888188
46	0xbde9a6b8	-0.11408752
47	0xbda5a926	-0.08088903
48	0xbe045a72	-0.12925127
49	0x3e19c3c1	0.1501608
50	0x3de7cf23	0.11318805
51	0xbe03f3e2	-0.12886003
52	0xbe044a58	-0.12918985
53	0xbd92ac9f	-0.07161831
54	0xbd7b5d23	-0.06136812
55	0xbdb8af10	-0.090177655
56	0xbe1ffd3d	-0.15623946
57	0x3d84c7de	0.06483434
58	0xbd44e029	-0.04806534
59	0xbe18c191	-0.1491759
60	0x3d731acc	0.059351727
61	0x3c8105d5	0.015749851
62	0xbdcc2347	-0.09967666
63	0xbe132676	-0.1437014
64	0x3e1f922d	0.15583105
65	0xbdc7bb43	-0.09752514
66	0x3db7a52b	0.0896705
67	0xbcbfafca	-0.023399252
68	0x3d6859af	0.056726154
69	0x3e0579b1	0.13034703
70	0xbde5e555	-0.11225382
71	0x3d8b6685	0.068066634
72	0xbdc2aa5a	-0.09505148
73	0x3d09f187	0.033677604
74	0xbd523391	-0.05131871
75	0xbc048ecd	-0.008090687
76	0xbcb1890f	-0.0216718
77	0x3db5a95b	0.088701926
78	0x3d8e8ebc	0.06960818
79	0xbcf24468	-0.029573634
80	0x3d7de383	0.06198455
81	0x3c411324	0.011784349
82	0x3d8298e3	0.06376817
83	0x3b580c5b	0.0032966349
84	0xbd91a400	-0.07111359
85	0x3dc0cda5	0.094142236
86	0x3d6d5383	0.05794097
87	0x3dbc2694	0.09187046
88	0xbdd351a1	-0.10318304
89	0x3d3b79a3	0.0457703
90	0x3e1c8689	0.15285696
91	0x3bb9dc9a	0.0056720497
92	0x3d8b8557	0.06812542
93	0x3d89b009	0.06723029
94	0x3ddbaeaa	0.10726674
95	0xbd982623	-0.07429149
96	0x3de14475	0.10999385
97	0x3e129cbe	0.14317605
98	0xbe1ba148	-0.15198243
99	0x3e1271af	0.1430118
100	0x3dabca97	0.0838825
101	0x3cd02174	0.025406577
102	0xbdb0cdc0	-0.08632994
103	0xbd88cabd	-0.06679294
104	0x3e0a9f2d	0.13537283
105	0x3d940f3d	0.07229469
106	0x3d5c20b7	0.053742137
107	0x3cea779a	0.028621484
108	0xbd8bbd22	-0.068231836
109	0x3c9a2880	0.01881814
110	0xbd9615bf	-0.073283665
111	0xbcf148ad	-0.0294536
112	0xbcee1ea8	-0.029067352
113	0x3d4c79bf	0.049920794
114	0x3dec40ce	0.11535798
115	0x3d8b40b9	0.06799454
116	0x3d98d161	0.07461811
117	0xbc4f5140	-0.012653649
118	0x3e27f528	0.16402113
119	0x3dc415f5	0.095745005
120	0xbbd63bf6	-0.0065379096
121	0xbd0b50bb	-0.034012537
122	0x3dc680b4	0.09692517
123	0x3c51692d	0.0127814235
124	0xbddd76a1	-0.10813642
125	0x3e0ed639	0.13948907
126	0xbe1cbcbf	-0.15306376
127	0xbe14bcee	-0.14525196
128	0xbc975e14	-0.018477477
129	0x3e010e5c	0.12603134
130	0xbcbf9e6f	-0.023390977
131	0x3d164586	0.036687396
132	0xbda8a459	-0.08234472
133	0x3d423b24	0.047419682
134	0x3ddcd5c0	0.10782957
135	0xbd1f879d	-0.03894769
136	0xbdf7429a	-0.1207325
137	0x3da3baf3	0.07994642
138	0xbe11b0b5	-0.14227565
139	0x3e0114e9	0.12605633
140	0xbdccc037	-0.099975996
141	0xbcc30e3c	-0.023810498
142	0xbbefdf31	-0.0073203077
143	0xbe00f757	-0.12594353
144	0x3b540322	0.00323505
145	0xbdabf286	-0.08395867
146	0xbd8db6f7	-0.069196634
147	0x3d55667b	0.052099686
148	0xbd1dbbdf	-0.038509246
149	0x3d241ab4	0.04006453
150	0x3e0b0e44	0.1357966
151	0xbdb0bc4d	-0.086296655
152	0x3df175f7	0.11790078
153	0x3e0473a1	0.12934734
154	0xbaae6dc9	-0.0013307865
155	0xbd47a5c1	-0.04874206
156	0x3dce1f37	0.100645475
157	0x3d699c17	0.057033625
158	0xbe08ea3a	-0.133706
159	0x3d984be6	0.074363515
160	0x3e12717d	0.14301105
161	0xbe0b9404	-0.13630682
162	0x3c6af565	0.014340733
163	0x3c7ba74f	0.015359714
164	0xbe0488b0	-0.12942767
165	0x3d95dbdb	0.07317325
166	0xbdf82394	-0.12116161
167	0x3d63940d	0.055561114
168	0xbd85bf09	-0.06530578
169	0x3e1b18d1	0.15146185
170	0x3dd4292a	0.10359414
171	0xbb93c3c7	-0.0045094225
172	0x3e0ed46c	0.1394822
173	0xbdc97a9e	-0.098378405
174	0x3d84ec87	0.064904265
175	0xbde5ccba	-0.11220689
176	0x3dacc77d	0.08436487
177	0x3dd1a66e	0.10236822
178	0x3ddd270b	0.107984625
179	0xbd1320ff	-0.03592014
180	0x3e14e298	0.14539564
181	0x3d1d9193	0.03846891
182	0xbd036794	-0.0320812
183	0xbe0bfb66	-0.1367012
184	0xbe00e227	-0.1258627
185	0xbd089c52	-0.033352204
186	0x3d960fdb	0.07327243
187	0x3e0a256d	0.1349084
188	0xbdc661eb	-0.09686645
189	0x3da6de5b	0.0814788
190	0x3c77da69	0.015127757
191	0xbc35f9da	-0.011106933
192	0xbdd03e10	-0.101680875
193	0x3de5c50f	0.112192266
194	0x3d581871	0.052757684
195	0x3acfe5aa	0.0015861292
196	0xbdee1180	-0.116244316
197	0x3ad85cf8	0.0016507199
198	0x3db800f0	0.08984554
199	0x3da8008b	0.082032286
200	0x3b6e3a33	0.0036350607
201	0x3e0d1978	0.13779247
202	0x3d89d372	0.06729783
203	0xbe0ab5a1	-0.13545848
204	0x38596984	5.18351e-05
205	0x3e07b24c	0.13251609
206	0x3b9cb66c	0.0047824886
207	0xbdda2106	-0.1065083
208	0x3c9a3d74	0.018828131
209	0x3cb6dbd8	0.022321627
210	0xbde8658c	-0.113474935
211	0xbc1b6c39	-0.0094862515
212	0x3e14dcf8	0.14537418
213	0x3dc38527	0.09546881
214	0xbdc60779	-0.09669394
215	0x3d9f5576	0.07779972
216	0x3d8d0b60	0.06886935
217	0xbda0e25e	-0.07855676
218	0xbda06f85	-0.07833771
219	0x3ccaa136	0.024735074
220	0x3e0a34e5	0.1349674
221	0xbe086bd1	-0.13322379
222	0xbb84c38b	-0.004051631
223	0x3e05d281	0.13068582
224	0xbdff6e0a	-0.1247216
225	0x3dffb3b1	0.12485445
226	0x3c9f3bde	0.019437727
227	0x3ddde3fd	0.10834501
228	0xbda934d7	-0.082620315
229	0x3d4cf1d6	0.05003532
230	0xbd935829	-0.071945496
231	0x3dec4fe8	0.115386784
232	0xbdd92d21	-0.10604311
233	0xbda1da45	-0.0790296
234	0xbad00efd	-0.0015873607
235	0x3d216d04	0.039410606
236	0xbd29e715	-0.041480143
237	0xbe0cf3d0	-0.13764882
238	0x3cc2cd12	0.023779426
239	0xbde584c9	-0.112069674
240	0x3cad8a9d	0.02118426
241	0xbd045f3b	-0.03231738
242	0x3e188ad6	0.14896712
243	0x3cf5d889	0.030010479
244	0xbdee0959	-0.11622877
245	0x3beb4660	0.00718002
246	0xbe08e2eb	-0.13367812
247	0xbce781c3	-0.028260117
248	0xbe0dee60	-0.13860464
249	0xbdd93e84	-0.10607627
250	0xbcc46aa7	-0.023976637
251	0xbd64e2a2	-0.055880196
252	0x3d6d4eaa	0.057936348
253	0xbd0a472d	-0.033759285
254	0xbe1c970c	-0.15291995
255	0xbde43718	-0.11143321

transformer.layers.0.self_attn.in_proj_bias f4 [192]
0	0x3c520a52	0.012819843
1	0x3b84f05f	0.004056975
2	0x3be4ee35	0.0069864043
3	0xba49d850	-0.00076997746
4	0x3b20c048	0.002452867
5	0x39eb0e1c	0.00044833205
6	0x3a9f16f2	0.0012137576
7	0x3af0fb70	0.0018385481
8	0x3c0cc536	0.008591941
9	0x3ba6eac7	0.0050939056
10	0x3c30d27e	0.010792373
11	0xbc7f2739	-0.015573316
12	0xbb87953f	-0.0041376646
13	0x3a9f8b8c	0.0012172326
14	0x3c554c45	0.013018672
15	0xbc403f01	-0.011733771
16	0x3be8a9ab	0.007100304
17	0xbb706335	-0.0036680226
18	0xbbb58202	-0.00553918
19	0xbc370c42	-0.011172356
20	0xbc0c579e	-0.008565811
21	0xbae11241	-0.0017171578
22	0x3bf5f820	0.0075063854
23	0xbb844416	-0.004036437
24	0x3c1c8905	0.009554152
25	0xbbaf3ede	-0.0053480705
26	0xbbd709c9	-0.006562446
27	0xbbe85b97	-0.0070909965
28	0x3c4a11d7	0.012333355
29	0x3baee178	0.0053369366
30	0xbbbc87ad	-0.0057534785
31	0xbc45e2d0	-0.012078002
32	0xbc4e61e1	-0.012596578
33	0xbc331964	-0.010931347
34	0xbb84332e	-0.0040344214
35	0xbc72c2b2	-0.014816927
36	0xbc383afc	-0.011244532
37	0xbc309ab3	-0.010779071
38	0xba2976a3	-0.00064645166
39	0x3c02b3ea	0.007977465
40	0xbba19c4d	-0.0049319626
41	0x3bbffab6	0.0058587445
42	0x3c1a4937	0.00941687
43	0xbc88f9da	-0.016720701
44	0xbc758861	-0.014986129
45	0xbc03215a	-0.008003557
46	0x3bfc5d2c	0.0077015366
47	0x3b44cdf9	0.0030029996
48	0xbbd8b4a0	-0.006613329
49	0x3c14f496	0.009091517
50	0x3b16b06f	0.0022993346
51	0x3bb761bf	0.005596369
52	0xbbcf6cfe	-0.0063301316
53	0x3a9274e8	0.0011173757
54	0xba1c73bb	-0.0005968173
55	0x3c05857a	0.008149499
56	0x3c124f19	0.008929991
57	0xbc7743d9	-0.01509186
58	0xbb29960b	-0.0025876786
59	0x3c57d371	0.01317297
60	0x3c1c66c2	0.009545984
61	0xbc6153ce	-0.013752891
62	0xbc22a093	-0.009925979
63	0x3c675c2b	0.014121096
64	0x38be81d4	9.0840884e-05
65	0xb8810232	-6.151608e-05
66	0x38f15ef6	0.000115094634
67	0xb92a3bb4	-0.00016234705
68	0xb8007ca8	-3.0633673e-05
69	0xb880d547	-6.1432416e-05
70	0x38cbda54	9.720461e-05
71	0x38a6f5a1	7.961249e-05
72	0xb7d68a2a	-2.5575126e-05
73	0xb896f504	-7.198195e-05
74	0x38fda678	0.00012094987
75	0xb4579556	-2.0077763e-07
76	0x380a406c	3.296176e-05
77	0x38d34176	0.00010073457
78	0x38ababe9	8.185936e-05
79	0xb856bfd9	-5.1200248e-05
80	0xb9a2025e	-0.00030900812
81	0xb9a9fa68	-0.0003242076
82	0x39836f76	0.00025069312
83	0xba029136	-0.00049807446
84	0xb9a42cc5	-0.00031313873
85	0xb957166c	-0.0002051235
86	0xba2a11f8	-0.0006487663
87	0xb9b1795d	-0.00033850493
88	0x36a2dd37	4.853729e-06
89	0xb91c2c8b	-0.00014893913
90	0x3923d099	0.000156226
91	0xb6051d6a	-1.9835666e-06
92	0xb655f5b3	-3.188249e-06
93	0xb977b649	-0.00023623662
94	0x39ecb227	0.00045146162
95	0x38c43f02	9.3577444e-05
96	0x38421f63	4.6282436e-05
97	0xb8a469d3	-7.839841e-05
98	0x39a8da37	0.0003220604
99	0x38e03ddd	0.00010692675
100	0xb9250b15	-0.00015739755
101	0xb98f7a4a	-0.00027366198
102	0xb91a0c92	-0.00014691267
103	0xb99ca2e7	-0.0002987601
104	0xb88d2796	-6.7307774e-05
105	0x389c3ba5	7.449769e-05
106	0xb85bcd8a	-5.2405092e-05
107	0x392eef2e	0.00016683034
108	0x39206e7a	0.00015299945
109	0x38a47c50	7.8432844e-05
110	0xb8b9916d	-8.848575e-05
111	0x398c4eb7	0.00026761528
112	0xb9baa008	-0.00035595917
113	0xb9023124	-0.00012416072
114	0x390598c2	0.00012740775
115	0x375c030a	1.3113729e-05
116	0xb9df416b	-0.00042582615
117	0x39a0940d	0.00030627885
118	0xb8d321d4	-0.00010067565
119	0x39597d60	0.00020741438
120	0xba2c3a89	-0.0006570002
121	0xba7a6e3d	-0.000955317
122	0x39382d00	0.00017564371
123	0x3a1f3355	0.0006073018
124	0xb93b877c	-0.00017884182
125	0x38b43558	8.593005e-05
126	0xb98edfcd	-0.00027251095
127	0x3788823a	1.6273105e-05
128	0xbcaac2c5	-0.020844826
129	0x3c34beab	0.011031787
130	0xbc9b5170	-0.01895973
131	0x3b9685f0	0.0045936033
132	0x3c3fe0f1	0.011711345
133	0x3c4e4752	0.012590246
134	0xbc970249	-0.018433707
135	0xbb1187d4	-0.0022206204
136	0xbc5de782	-0.013543965
137	0xbc2592df	-0.010105818
138	0x3cb9868e	0.022647168
139	0xbc0c7d81	-0.008574844
140	0x3be1d814	0.0068922136
141	0xbba980cc	-0.0051728245
142	0x3c0de4dc	0.008660521
143	0xbc650541	-0.013978303
144	0xbb9128bf	-0.004429906
145	0xbca2adf1	-0.019858332
146	0xbc1a539c	-0.009419348
147	0xbce79f77	-0.028274281
148	0x3ca5689a	0.02019148
149	0x3c820605	0.015872011
150	0x3ccc60be	0.024948474
151	0xbbb879a6	-0.005629736
152	0xbce39964	-0.027783103
153	0x3b73b148	0.0037184525
154	0x3b92730f	0.0044692825
155	0x3c807998	0.01568298
156	0x3ca08103	0.019592768
157	0xbaba8fd8	-0.0014233543
158	0x3c1c3d85	0.009536152
159	0xbc87ab19	-0.016561078
160	0x3b93a2ae	0.004505477
161	0xbcc81638	-0.024424657
162	0x3c3207c7	0.010866112
163	0x3c3d56ab	0.011556308
164	0x3ca6366a	0.020289619
165	0xbb2c5631	-0.0026296491
166	0xbb74e478	-0.0037367623
167	0xbc2a22db	-0.010384287
168	0xbb7963ed	-0.0038053945
169	0xb998ee8f	-0.0002916944
170	0x3cc7da7f	0.02439618
171	0xbaae88e6	-0.0013315945
172	0x3c55456b	0.013017039
173	0x3cb7db9e	0.022443589
174	0x3c47e39b	0.0122002615
175	0x3c48ce2b	0.0122561855
176	0xbc27f181	-0.01025045
177	0x3c37fa2b	0.011229078
178	0xbc9bc5e3	-0.019015258
179	0x3c0c99c9	0.008581587
180	0x3cf5b91d	0.029995495
181	0x3cb2287f	0.021747826
182	0x3cb8a178	0.022537932
183	0x3cb03b42	0.021512631
184	0xbbc3ce5c	-0.0059755277
185	0x3d0c49b6	0.034249984
186	0x3cb1108b	0.021614334
187	0x3c8cfc22	0.01721007
188	0xbca58ff5	-0.020210246
189	0x3c81b416	0.015832942
190	0xbc54153f	-0.012944519
191	0x3c8693ae	0.016427841

transformer.layers.0.self_attn.out_proj.weight f4 [64, 64]
0	0x3d6e2889	0.058144126
1	0x3c68e712	0.014215248
2	0xbdcc934a	-0.09989031
3	0x3d4abde9	0.04949752
4	0x3db9ffcb	0.09081992
5	0xbd459484	-0.04823734
6	0x3bf00ec3	0.0073259785
7	0x3dba2760	0.090895414
8	0x3d0cf078	0.034409016
9	0xbb3145a6	-0.002704957
10	0x3dec56b8	0.11539978
11	0xbd8b7002	-0.06808473
12	0xbdac7878	-0.08421415
13	0xbda6d963	-0.08146932
14	0xbd9859da	-0.07439013
15	0x3dc8df08	0.09808165
16	0x3d83abb7	0.064292364
17	0xbe00a55a	-0.12563077
18	0x3d66d201	0.05635262
19	0xbd4bb401	-0.049732212
20	0x3b1b1003	0.0023660667
21	0xbd0968a9	-0.033547077
22	0xbdd7ba55	-0.10533587
23	0xbd06a32d	-0.03287046
24	0x3e0d9232	0.138253
25	0xbb5887a5	-0.0033039835
26	0x3d62bf91	0.055358473
27	0x3da5fb66	0.08104591
28	0x3c80db3b	0.015729537
29	0xbc9f1161	-0.019417467
30	0xbda55cf0	-0.08074367
31	0xbce5e02b	-0.028060993
32	0xbdbf97e6	-0.09355144
33	0x3dd59bd9	0.10430116
34	0x3ddc2f3c	0.10751197
35	0xbbb74119	-0.005592477
36	0xbd53fc92	-0.05175454
37	0xbddfb8a1	-0.10923887
38	0x3de12f69	0.10995371
39	0x3b4ba19f	0.0031071675
40	0x3d602a74	0.054727986
41	0x3d444386	0.047915958
42	0xbcdbd2b5	-0.026833871
43	0xbdbdd7df	-0.0926969
44	0xbd1eadc6	-0.038739942
45	0x3d1b1ae8	0.037867457
46	0xbdcbcc53	-0.09951081
47	0xbde3295f	-0.11091875
48	0xba82fc84	-0.0009993468
49	0x3e07022a	0.1318442
50	0xbdd871cc	-0.1056858
51	0xbd9b5c6a	-0.07585986
52	0x3d942e3d	0.07235382
53	0x3d5deeba	0.054182746
54	0xbd5ba791	-0.0536266
55	0xbd15acca	-0.036541738
56	0xbdc067ad	-0.093947746
57	0xbd766cc8	-0.060162336
58	0xbda482cf	-0.08032762
59	0x3d7d021f	0.0617696
60	0xbdd7c66a	-0.10535891
61	0x3bb88480	0.0056310296
62	0xbcc5b353	-0.02413336
63	0xbbb5c8c8	-0.0055476166
64	0xbdca6706	-0.098829314
65	0xbd84ee22	-0.06490733
66	0x3d8cc139	0.06872792
67	0x3dfb2c04	0.12264255
68	0xbd8aa2b0	-0.067693114
69	0x3d47587b	0.048668366
70	0x3dbe7672	0.092999354
71	0x3d298c03	0.04139329
72	0x3da5b751	0.080916055
73	0xbdf4da51	-0.11955703
74	0xbda9fbfd	-0.08300016
75	0x3dad81b7	0.08472007
76	0x3cb9a1af	0.022660105
77	0xbc141f74	-0.009040702
78	0x3da2f144	0.07956174
79	0xbdaa4d9e	-0.083155856
80	0x3dabd6f8	0.083906114
81	0x3dee84a9	0.11646397
82	0x3dce8640	0.100842
83	0x3da6b790	0.081404805
84	0x3d745568	0.059651762
85	0x3cca257a	0.024676073
86	0xbced88fb	-0.028995981
87	0x3dbbba8f	0.091664426
88	0xbca1cebc	-0.019751899
89	0xbdbcbe79	-0.09216017
90	0xbc872817	-0.016498609
91	0xbd9534df	-0.07285475
92	0xbca08e31	-0.019599052
93	0xbd47d2d9	-0.048785064
94	0x3d145afb	0.03621958
95	0x3d213229	0.039354477
96	0xbd678758	-0.05652556
97	0xbce64b80	-0.028112173
98	0x3e079d9b	0.13243715
99	0xbe058f4c	-0.13042945
100	0x3dfddfe2	0.12396218
101	0x3c9c8576	0.019106608
102	0x3d87a1c4	0.06622651
103	0x3cff1433	0.031137561
104	0x3c7f8a5a	0.01559695
105	0x3c6de3c4	0.014519636
106	0x3d73df55	0.059539158
107	0xbdf14b90	-0.117819905
108	0x3cd8d615	0.02646927
109	0x3cf45751	0.029826792
110	0x3d61cdd9	0.055127952
111	0x3dabff33	0.08398285
112	0xbdafd0e8	-0.085847676
113	0xbe03d61b	-0.12874644
114	0xbc057240	-0.008144915
115	0xbd64b576	-0.055837117
116	0xbe189854	-0.14901859
117	0xbd9afb4c	-0.07567462
118	0xbb5a2d00	-0.0033290982
119	0xbd2dba1c	-0.042413816
120	0xbd619e21	-0.055082444
121	0x3d883a28	0.066517174
122	0xbdcf6bfc	-0.10128018
123	0xbdad5767	-0.08463936
124	0xbdecadd4	-0.115565926
125	0xbd678a95	-0.056528646
126	0xbdaf9c8b	-0.0857478
127	0xbcf3587b	-0.029705277
128	0xb9882570	-0.00025967835
129	0x3c0ca4da	0.008584226
130	0xbd75f21d	-0.06004535
131	0x3de105f4	0.109874636
132	0xbd5ea8f0	-0.05436033
133	0x3dd7dea0	0.10540509
134	0x3d8f46b7	0.0699591
135	0x3dc2da43	0.09514286
136	0x3ba664ca	0.005077933
137	0x3c7eb5a6	0.015546238
138	0xbc4dfd5c	-0.012572613
139	0x3decd6c4	0.11564401
140	0x3da82d5d	0.08211777
141	0x3dad6d96	0.084681675
142	0x3dbd17b4	0.09233037
143	0xbd6c32f4	-0.05766578
144	0x3c504559	0.012711846
145	0xbd2199b8	-0.03945324
146	0x3ae7a38c	0.0017672642
147	0xbddc8cc0	-0.107690334
148	0x3dc9f4db	0.098611556
149	0x3cd9f50d	0.026606107
150	0x3e176c41	0.1478739
151	0x3dad0892	0.084489
152	0x3d2b6e93	0.0418535
153	0xbd2e219a	-0.042512514
154	0xbd22ace3	-0.03971566
155	0xbdba14a7	-0.0908597
156	0x3d377504	0.04478933
157	0xbd8f534f	-0.06998312
158	0x3d846c04	0.06465915
159	0x3bf024b4	0.007328594
160	0x3d998ed0	0.074979424
161	0x3d1de5e4	0.03854932
162	0xbd94aa29	-0.07259018
163	0x3ce14a68	0.0275013
164	0xbdb510f1	-0.08841122
165	0xbd09c88f	-0.033638533
166	0xbde5549e	-0.1119778
167	0x3df2282a	0.11824067
168	0x3d77739d	0.06041299
169	0xbd71b69e	-0.059012048
170	0xbcd2a3b4	-0.025712825
171	0xbd3d7478	-0.04625365
172	0xbd5e6937	-0.05429956
173	0x3dfcfa38	0.12352413
174	0xbd558798	-0.052131265
175	0x3caeacba	0.021322597
176	0x3da5aef7	0.080900125
177	0xbc2fb112	-0.010723369
178	0xbc8088d9	-0.015690254
179	0x3da860b6	0.08221571
180	0xbccc50f7	-0.02494095
181	0x3dc72b08	0.097250044
182	0x3db6f275	0.08932964
183	0x3d8d3d14	0.06896415
184	0x3d2988fd	0.041390408
185	0x3d742496	0.059605204
186	0x3d8607ad	0.06544433
187	0x3d8e2539	0.069406934
188	0x3c5641bb	0.013077195
189	0x3d5d084a	0.053962983
190	0x3d3b265d	0.045690883
191	0xbe04fc47	-0.12986861
192	0xbc7f28d8	-0.015573703
193	0x3d95d9eb	0.07316955
194	0x3d55819b	0.052125555
195	0x3dd9b2fc	0.10629842
196	0xbd89b148	-0.06723267
197	0x3dced604	0.10099414
198	0xbdb05837	-0.08610576
199	0x3d879a48	0.06621224
200	0xbdb6f4b8	-0.08933395
201	0xbdb6c9e1	-0.08925224
202	0x3c949821	0.018138947
203	0xbdd4b170	-0.10385406
204	0xbbbbc4af	-0.0057302336
205	0xbd920b14	-0.07131019
206	0xbdc1fa63	-0.094715856
207	0xbc1121de	-0.008858172
208	0xbcd5cb21	-0.026097836
209	0xbdb67016	-0.089080974
210	0x3cdb883c	0.02679836
211	0x3cc8bd78	0.024504408
212	0x3d75e7a3	0.06003536
213	0x3d335c43	0.04378916
214	0x3d31079a	0.04322014
215	0x3d4babf7	0.049724545
216	0x3d800f4b	0.06252917
217	0xbc17af18	-0.009258054
218	0x3da3132d	0.07962642
219	0xbd2e7148	-0.042588502
220	0xbcd2127c	-0.02564358
221	0xbc9f0db4	-0.019415714
222	0xbd992326	-0.07477407
223	0x3d760dce	0.06007176
224	0x3e13e91e	0.14444396
225	0xbd266fa4	-0.040633813
226	0xbd2350c8	-0.03987196
227	0xbd00567f	-0.03133249
228	0x3c3bc0b5	0.011459519
229	0xbd88fa5a	-0.06688376
230	0xbdcad9b2	-0.09904803
231	0x3d20b870	0.039238393
232	0x3dc12f57	0.094328575
233	0xbb836f1d	-0.0040110485
234	0x3ded2461	0.11579204
235	0x3c4875b3	0.012235093
236	0xbdbe2fce	-0.09286462
237	0x3dcaf504	0.09910014
238	0xbd4fbfbf	-0.050719973
239	0xbd87c87b	-0.066300355
240	0x3df046bf	0.11732244
241	0x3d2727ae	0.040809326
242	0xbd8b4e3a	-0.0680203
243	0xbdb5fc79	-0.08886046
244	0x3cab3049	0.020897048
245	0x3c6d6ad0	0.014490798
246	0x3d9fdb47	0.07805496
247	0x3dba383d	0.09092758
248	0xbd4ac776	-0.049506627
249	0x3d2c33da	0.042041637
250	0xbcf3a1c2	-0.029740218
251	0x3d3d649c	0.046238527
252	0x3db46c1d	0.088096835
253	0x3ddf9538	0.10917133
254	0x3d614d8d	0.0550056
255	0x3d0354b6	0.03206321

transformer.layers.0.self_attn.out_proj.bias f4 [64]
0	0xbbe031b8	-0.0068418644
1	0x3b3450f7	0.002751408
2	0x3ca35c2c	0.019941412
3	0x3cbe2c9d	0.023214633
4	0x3a602201	0.0008549989
5	0x3cbb4ee4	0.022864766
6	0x3a52cea5	0.00080416567
7	0xbc5daf21	-0.0135305235
8	0xbc16d080	-0.009204984
9	0xbc3b95b7	-0.011449269
10	0xbca15ccc	-0.01969757
11	0x3bf61ea3	0.0075109764
12	0xbc947816	-0.018123668
13	0x3c951829	0.018199997
14	0xbc8be7af	-0.017078249
15	0xbbe7321c	-0.007055534
16	0xbc16a006	-0.009193426
17	0xbc699046	-0.014255589
18	0xba517000	-0.00079894066
19	0xbc6f4cbc	-0.014605697
20	0x3b89bddf	0.0042035426
21	0x3ccd395a	0.025051761
22	0xbca018d7	-0.019543095
23	0x3c45af6a	0.012065748
24	0x3c425193	0.011860269
25	0x3c8f220e	0.017472293
26	0x3b8215b8	0.0039698742
27	0x3cc484e8	0.023989156
28	0x3ca6fb40	0.020383477
29	0xbc4aacd6	-0.012370309
30	0xbce8e362	-0.028428737
31	0xbcd35637	-0.025797946
32	0x3bca7b00	0.0061792135
33	0x3bdf9ae4	0.0068238843
34	0xbb0acb8c	-0.0021178452
35	0x3c28a118	0.010292314
36	0x3ccf332a	0.025292952
37	0x3c5a26e2	0.013314934
38	0xbc2fdda4	-0.010733996
39	0xbbe9318d	-0.0071165026
40	0x3cb8359c	0.0224865
41	0x3cc073ce	0.02349272
42	0x3ca7e0c5	0.02049292
43	0x3b7eb293	0.0038863763
44	0x3b0d2cf2	0.0021541682
45	0xbbd572f9	-0.00651395
46	0x3cb73900	0.022366047
47	0xbc877d44	-0.016539223
48	0x3c05b8ce	0.008161737
49	0xbb86f1b1	-0.0041181673
50	0x3bd77fcd	0.0065765143
51	0x3c8d6bc5	0.017263303
52	0x3c199902	0.009374859
53	0xbbb4c81d	-0.0055170194
54	0xbc9ce6c3	-0.019153005
55	0xbc21c5f7	-0.009873859
56	0xb9b9da7a	-0.00035448727
57	0xbbedfcc5	-0.0072627985
58	0x3ca5aafc	0.020223133
59	0xbc2d6faa	-0.010585705
60	0xbbc420ce	-0.005985356
61	0xbc8c7272	-0.017144416
62	0xbca6da0c	-0.020367645
63	0x3b8aad1c	0.004232062

transformer.layers.0.linear1.weight f4 [256, 64]
0	0xbde76026	-0.11297636
1	0x3caf4834	0.021396734
2	0xbd2656ae	-0.040610008
3	0x3d13f055	0.03611787
4	0x3d7eca57	0.062204685
5	0x3d2e6d48	0.042584687
6	0xbcf673fb	-0.0300846
7	0xbc0a2cb2	-0.008433508
8	0x3c092eee	0.008373005
9	0xbdea2c2f	-0.114342086
10	0x3dc02a57	0.09383076
11	0x3daacb39	0.08339543
12	0x3b617cec	0.0034406735
13	0xbdd2049e	-0.10254787
14	0xbd8e661e	-0.06953071
15	0xbbf4934f	-0.0074638496
16	0x3dad95cc	0.08475837
17	0x3dc66ec7	0.09689098
18	0x3db3c604	0.08778003
19	0x3d0ab746	0.03386619
20	0xbcdee286	-0.027207624
21	0xbd2cd0ce	-0.04219132
22	0xbcaf0c7d	-0.02136826
23	0xbd060d79	-0.032727692
24	0x3d8ca766	0.06867866
25	0x3dc2700a	0.09494026
26	0x3c092faf	0.008373185
27	0x3c722794	0.014779944
28	0x3dc8c567	0.098032765
29	0x3dda5cce	0.10662232
30	0x3d14bb80	0.036311626
31	0xbddb7a6f	-0.10716712
32	0x3ded7854	0.115952164
33	0xbd3c7f9c	-0.046020135
34	0x3d25c2a2	0.04046882
35	0x3da9da68	0.08293611
36	0x3c758b3b	0.014986808
37	0x3dd58390	0.10425484
38	0x3d5a7920	0.05333817
39	0x3dc7d830	0.09758031
40	0x3d05ae9d	0.032637227
41	0xbdeda723	-0.116041444
42	0x3db55a8a	0.088551596
43	0x3d4d8c53	0.05018265
44	0x3df36e3c	0.1188626
45	0x3d25a901	0.040444378
46	0xbdc57916	-0.09642236
47	0x3cbcab38	0.023030862
48	0x3d25e43b	0.04050086
49	0x3cdc7cd2	0.026914988
50	0xbd809c61	-0.06279827
51	0x3c0f0dc0	0.008731306
52	0xbda08cc2	-0.078393474
53	0x3d48e1ce	0.04904347
54	0x3d8d527a	0.06900497
55	0x3d3ac7f5	0.04560085
56	0xbd8e5ea6	-0.069516465
57	0x3e01b1c4	0.12665468
58	0xbd4893a8	-0.04896894
59	0xbd636f1d	-0.055525888
60	0x3dde6142	0.10858394
61	0x3db39bc1	0.08769942
62	0xbcd91227	-0.026497914
63	0x3e013e98	0.12621534
64	0x3c6673b0	0.014065668
65	0xbdde9786	-0.108687446
66	0x3dab0154	0.08349863
67	0x3ac459ad	0.0014980339
68	0xbdb57f00	-0.08862114
69	0x3dcccd64	0.10000113
70	0xbd3ac1a8	-0.04559484
71	0x3c570537	0.013123802
72	0xbe058e91	-0.13042666
73	0x3c75f9e0	0.015013188
74	0x3d6b1935	0.057397086
75	0xbcf9df23	-0.030501908
76	0x3c5fd9cf	0.013662769
77	0xbd6638f0	-0.056206644
78	0xbdb03ab2	-0.08604945
79	0xbd128476	-0.035770856
80	0xbdfa3fa1	-0.122191675
81	0xbdb59ec0	-0.0886817
82	0xbd9877f0	-0.07444751
83	0x3c962569	0.018328385
84	0x3d5206b0	0.05127591
85	0xbda05791	-0.07829202
86	0xbc469ec6	-0.0121228155
87	0x3d1835f1	0.037160818
88	0x3d37bbf0	0.044856966
89	0xbd114489	-0.03546575
90	0x3d137f2f	0.036009964
91	0xbdfcb20a	-0.12338646
92	0xbdf9b292	-0.12192263
93	0xbd9a256b	-0.07526668
94	0x3c12f842	0.008970322
95	0xbd339b13	-0.043849062
96	0x3dc8e9d1	0.09810222
97	0xbc33be3d	-0.010970649
98	0x3d255687	0.040365722
99	0x3d247859	0.040153835
100	0x3c909a45	0.017651686
101	0xbd966520	-0.07343507
102	0xbdcbeddc	-0.099574775
103	0x3df08175	0.11743442
104	0x3e1d9a43	0.15390877
105	0xbd920c68	-0.071312726
106	0xbdf117ff	-0.11772155
107	0x3da85983	0.08220198
108	0xbd3d6af8	-0.04624459
109	0x3da738bb	0.08165117
110	0x3df09dc8	0.117488444
111	0x3c0ace65	0.00847206
112	0xbd053dfc	-0.032529816
113	0x3dbd13b4	0.09232274
114	0xbd29a900	-0.041420937
115	0x3d08a484	0.03336002
116	0x3cbf3d99	0.023344802
117	0x3d51fe95	0.05126818
118	0xbda49460	-0.08036113
119	0xbc238225	-0.009979759
120	0x3cf85a9f	0.030316649
121	0xbc2c86ac	-0.010530155
122	0x3e0a93e9	0.13532986
123	0x3d5e277b	0.05423687
124	0x3c451323	0.012028488
125	0xbd3207af	-0.04346436
126	0xbd9d480c	-0.076797575
127	0xbc6f42e7	-0.014603353
128	0xbcead05d	-0.028663808
129	0xbe0bb48c	-0.13643092
130	0x3c80f1c4	0.015740283
131	0x3b9b12ec	0.0047324803
132	0x3c0bb2b0	0.008526489
133	0x3d425947	0.047448423
134	0xbc5d970b	-0.013524781
135	0x3d1151f7	0.03547856
136	0x3dbf2407	0.093330435
137	0x3dcf5aa8	0.10124713
138	0xbd907a85	-0.07054619
139	0x3cc3024a	0.023804802
140	0xbdd98644	-0.10621312
141	0x3cc8fdbf	0.024535058
142	0x3d1c1cc4	0.03811337
143	0x3d903879	0.07042021
144	0xbd81518d	-0.06314383
145	0x3c6f9044	0.014621798
146	0xbd4cb14d	-0.049973775
147	0xbddefa0e	-0.10887538
148	0xbd45e777	-0.048316445
149	0xb7d1c464	-2.5006193e-05
150	0xbdf8ee2b	-0.12154802
151	0x3d1a6219	0.03769121
152	0xbda71969	-0.081591435
153	0xbd9d417b	-0.07678505
154	0xbc504dec	-0.0127138905
155	0x3e17910e	0.14801428
156	0xbdeaef27	-0.11471396
157	0xbc954f69	-0.018226342
158	0xbdaa9fc4	-0.08331254
159	0xbd586f58	-0.05284056
160	0xbd4e0bbf	-0.05030417
161	0x3d3911a5	0.045182843
162	0xbc9d0e62	-0.019171897
163	0x3b43eee1	0.0029897022
164	0xbc4391be	-0.011936603
165	0x3de404fd	0.11133764
166	0x3d3cb869	0.046074305
167	0xbd8b258d	-0.067942716
168	0x3d9dcc0a	0.07704933
169	0xbd350c21	-0.04420102
170	0xbd1e16ae	-0.038595848
171	0x3d883f3c	0.06652686
172	0xbdf32cef	-0.11873805
173	0x3cedf356	0.029046696
174	0xbd38b86f	-0.045097765
175	0x3d076b90	0.033061564
176	0x3a1d6872	0.0006004638
177	0xbd363bd1	-0.04449064
178	0x3b5f31f9	0.0034056886
179	0x3d52ab3f	0.051432844
180	0x3d6954b9	0.056965563
181	0x3c0120f6	0.007881394
182	0xbd831611	-0.06400693
183	0x3c83f887	0.016109718
184	0x3bb78816	0.0056009395
185	0xbd46cc9e	-0.048534982
186	0x3e17c409	0.14820875
187	0xbd39932f	-0.04530638
188	0xbd2b94b1	-0.04188985
189	0xbd259963	-0.040429484
190	0xbd4595a1	-0.0482384
191	0xbdf33ec6	-0.118772075
192	0xbdacb34c	-0.08432636
193	0xbdc19588	-0.09452349
194	0xbdd968c4	-0.106156856
195	0xbd456f5c	-0.048201904
196	0xbd2b4332	-0.04181213
197	0x3dddb731	0.108259566
198	0xbc3d06ce	-0.011537267
199	0xbdddbb6a	-0.10826762
200	0xbdd04130	-0.101686835
201	0x3da35ce9	0.079767056
202	0xbdbe45e5	-0.09290675
203	0x3ccd3943	0.025051719
204	0x3dd30046	0.103027865
205	0x3c8a1263	0.01685447
206	0x3d8520b9	0.06500382
207	0x3df6ba13	0.120472096
208	0x3da89053	0.08230653
209	0xbca6a17f	-0.02034068
210	0x3d37d1ce	0.04487782
211	0xbd378999	-0.044808958
212	0x3d781bfb	0.06057356
213	0xbd17069a	-0.03687153
214	0xbd2ad3cb	-0.041705888
215	0x3d7113ad	0.058856655
216	0xbdf430f5	-0.119234
217	0x3d341de4	0.04397382
218	0xbc15f9ef	-0.009153827
219	0xbda5f740	-0.081038
220	0x3dcb6e18	0.09933108
221	0x3d5237c5	0.051322717
222	0xbbb46d0f	-0.005506165
223	0x3dced16f	0.1009854
224	0x3dffaa3b	0.12483641
225	0xbda05e08	-0.07830435
226	0xbd8edeb5	-0.06976072
227	0x3d0f52a3	0.034990918
228	0xbba7714b	-0.005109941
229	0xbdc5a974	-0.09651461
230	0xbdba482b	-0.09095796
231	0x3db185f8	0.08668131
232	0x3d9d53ad	0.076819755
233	0xbd68375b	-0.056693416
234	0x3d014167	0.031556513
235	0x3d0cec65	0.03440513
236	0xbdd33fff	-0.10314941
237	0x3df586ee	0.119886264
238	0x3d04610f	0.032319125
239	0x3b181ebd	0.002321168
240	0xbda2adf2	-0.07943334
241	0xbd605006	-0.054763816
242	0x3dcec521	0.10096193
243	0xbdcec167	-0.10095482
244	0x3da95a7b	0.08269211
245	0xbcb8d36a	-0.022561748
246	0x3d33016c	0.043702528
247	0xbd774abd	-0.06037401
248	0xbb3e64a9	-0.0029051697
249	0xbca8ddf6	-0.020613652
250	0xbca23cf3	-0.019804453
251	0x3d64f561	0.055898074
252	0xbd37e3ae	-0.044894867
253	0x3db375e3	0.087627195
254	0x3cf3f2a5	0.029778788
255	0xbcfdd3f6	-0.03098486
